…
 lr                         | 0.0005     
 main_metric                |            
 num_neg                    | 0          
 num_workers                | 1          
 optimizer                  | Adam       
 random_seed                | 0          
 save_final_results         | 1          
 test_all                   | 0          
 topk                       | 5,10,20,50 
==========================================
INFO:root:Device: cuda
INFO:root:Load corpus from ../data/MINDCTR/ContextReader_context101.pkl
INFO:root:#params: 18426589
INFO:root:DeepFMCTR(
  (loss_fn): BCELoss()
  (context_embedding): ModuleDict(
    (i_category_c): Embedding(17, 64)
    (i_subcategory_c): Embedding(196, 64)
    (c_day_f): Linear(in_features=1, out_features=64, bias=False)
    (c_hour_c): Embedding(24, 64)
    (c_period_c): Embedding(9, 64)
    (c_weekday_c): Embedding(7, 64)
    (user_id): Embedding(269312, 64)
    (item_id): Embedding(9373, 64)
  )
  (linear_embedding): ModuleDict(
    (i_category_c): Embedding(17, 1)
    (i_subcategory_c): Embedding(196, 1)
    (c_day_f): Linear(in_features=1, out_features=1, bias=False)
    (c_hour_c): Embedding(24, 1)
    (c_period_c): Embedding(9, 1)
    (c_weekday_c): Embedding(7, 1)
    (user_id): Embedding(269312, 1)
    (item_id): Embedding(9373, 1)
  )
  (deep_layers): MLP_Block(
    (mlp): Sequential(
      (0): Linear(in_features=512, out_features=512, bias=True)
      (1): ReLU()
      (2): Dropout(p=0.2, inplace=False)
      (3): Linear(in_features=512, out_features=64, bias=True)
      (4): ReLU()
      (5): Dropout(p=0.2, inplace=False)
      (6): Linear(in_features=64, out_features=1, bias=True)
    )
  )
)
INFO:root:Test Before Training: (AUC@All:0.4917,LOG_LOSS@All:0.6968)
INFO:root:Optimizer: Adam
INFO:root:Namespace(model_name='DeepFM', model_mode='CTR')
INFO:root:--------------------------------------------- BEGIN: 2024-12-20 10:09:15 ---------------------------------------------
INFO:root:
==========================================
 Arguments                  | Values      
…
 lr                         | 0.0005     
 main_metric                |            
 num_neg                    | 0          
 num_workers                | 1          
 optimizer                  | Adam       
 random_seed                | 0          
 save_final_results         | 1          
 test_all                   | 0          
 topk                       | 5,10,20,50 
==========================================
INFO:root:Device: cuda
INFO:root:Load corpus from ../data/MINDCTR/ContextReader_context101.pkl
INFO:root:#params: 1855034
INFO:root:DeepFMCTR(
  (loss_fn): BCELoss()
  (context_embedding): ModuleDict(
    (i_category_c): Embedding(15, 64)
    (i_subcategory_c): Embedding(161, 64)
    (c_day_f): Linear(in_features=1, out_features=64, bias=False)
    (c_hour_c): Embedding(24, 64)
    (c_period_c): Embedding(9, 64)
    (c_weekday_c): Embedding(7, 64)
    (user_id): Embedding(20597, 64)
    (item_id): Embedding(3178, 64)
  )
  (linear_embedding): ModuleDict(
    (i_category_c): Embedding(15, 1)
    (i_subcategory_c): Embedding(161, 1)
    (c_day_f): Linear(in_features=1, out_features=1, bias=False)
    (c_hour_c): Embedding(24, 1)
    (c_period_c): Embedding(9, 1)
    (c_weekday_c): Embedding(7, 1)
    (user_id): Embedding(20597, 1)
    (item_id): Embedding(3178, 1)
  )
  (deep_layers): MLP_Block(
    (mlp): Sequential(
      (0): Linear(in_features=512, out_features=512, bias=True)
      (1): ReLU()
      (2): Dropout(p=0.2, inplace=False)
      (3): Linear(in_features=512, out_features=64, bias=True)
      (4): ReLU()
      (5): Dropout(p=0.2, inplace=False)
      (6): Linear(in_features=64, out_features=1, bias=True)
    )
  )
)
INFO:root:Test Before Training: (AUC@All:0.4831,LOG_LOSS@All:0.6687)
INFO:root:Optimizer: Adam
INFO:root:Epoch 1     loss=0.1735 [48.6 s]	dev=(AUC@All:0.6730,LOG_LOSS@All:0.1697) [2.3 s] *
INFO:root:Epoch 2     loss=0.1633 [47.6 s]	dev=(AUC@All:0.6815,LOG_LOSS@All:0.1745) [2.5 s] *
INFO:root:Epoch 3     loss=0.1574 [47.9 s]	dev=(AUC@All:0.6930,LOG_LOSS@All:0.1767) [2.3 s] *
…
