…
 lr                         | 0.001      
 main_metric                |            
 num_neg                    | 0          
 num_workers                | 5          
 optimizer                  | Adam       
 random_seed                | 0          
 save_final_results         | 1          
 test_all                   | 0          
 topk                       | 5,10,20,50 
==========================================
INFO:root:Device: cuda
INFO:root:Load corpus from ../data/ML_1MCTR/ContextReader_context101.pkl
INFO:root:#params: 1149140
INFO:root:DeepFMCTR(
  (loss_fn): BCELoss()
  (context_embedding): ModuleDict(
    (i_genre_c): Embedding(298, 64)
    (i_title_c): Embedding(3126, 64)
    (c_day_f): Linear(in_features=1, out_features=64, bias=False)
    (c_hour_c): Embedding(24, 64)
    (c_period_c): Embedding(9, 64)
    (c_weekday_c): Embedding(7, 64)
    (user_id): Embedding(6035, 64)
    (item_id): Embedding(3126, 64)
  )
  (linear_embedding): ModuleDict(
    (i_genre_c): Embedding(298, 1)
    (i_title_c): Embedding(3126, 1)
    (c_day_f): Linear(in_features=1, out_features=1, bias=False)
    (c_hour_c): Embedding(24, 1)
    (c_period_c): Embedding(9, 1)
    (c_weekday_c): Embedding(7, 1)
    (user_id): Embedding(6035, 1)
    (item_id): Embedding(3126, 1)
  )
  (deep_layers): MLP_Block(
    (mlp): Sequential(
      (0): Linear(in_features=512, out_features=512, bias=True)
      (1): ReLU()
      (2): Dropout(p=0.2, inplace=False)
      (3): Linear(in_features=512, out_features=128, bias=True)
      (4): ReLU()
      (5): Dropout(p=0.2, inplace=False)
      (6): Linear(in_features=128, out_features=1, bias=True)
    )
  )
)
INFO:root:Test Before Training: (AUC@All:0.4645,LOG_LOSS@All:2.1899)
INFO:root:Optimizer: Adam
INFO:root:Epoch 1     loss=0.5662 [15.6 s]	dev=(AUC@All:0.7623,LOG_LOSS@All:0.6394) [2.0 s] *
INFO:root:Epoch 2     loss=0.5445 [14.9 s]	dev=(AUC@All:0.7711,LOG_LOSS@All:0.6746) [1.8 s] *
INFO:root:Epoch 3     loss=0.5388 [15.2 s]	dev=(AUC@All:0.7649,LOG_LOSS@All:0.6240) [1.3 s]
…
