…
INFO:root:Counting dataset statistics...
INFO:root:"# user": 6034, "# item": 3125, "# entry": 994202
INFO:root:"# positive interaction": 574286 (57.8%)
INFO:root:Collect context features...
INFO:root:Loading context for train set...
INFO:root:#Situation Feautures: 4
INFO:root:Loading context for dev set...
INFO:root:#Situation Feautures: 4
INFO:root:Loading context for test set...
INFO:root:#Situation Feautures: 4
INFO:root:# Item Features: 3
INFO:root:Save corpus to ../data/ML_1MCTR/ContextReader_context101.pkl
INFO:root:#params: 1302594
INFO:root:FinalMLPCTR(
  (loss_fn): BCELoss()
  (embedding_dict): ModuleDict(
    (i_genre_c): Embedding(298, 64)
    (i_title_c): Embedding(3126, 64)
    (c_day_f): Linear(in_features=1, out_features=64, bias=False)
    (c_hour_c): Embedding(24, 64)
    (c_period_c): Embedding(9, 64)
    (c_weekday_c): Embedding(7, 64)
    (user_id): Embedding(6035, 64)
    (item_id): Embedding(3126, 64)
  )
  (mlp1): MLP_Block(
    (mlp): Sequential(
      (0): Linear(in_features=512, out_features=64, bias=True)
      (1): BatchNorm1d(64, eps=1e-05, momentum=0.1, affine=True, track_running_stats=True)
      (2): ReLU()
      (3): Dropout(p=0.2, inplace=False)
    )
  )
  (mlp2): MLP_Block(
    (mlp): Sequential(
      (0): Linear(in_features=512, out_features=64, bias=True)
      (1): BatchNorm1d(64, eps=1e-05, momentum=0.1, affine=True, track_running_stats=True)
      (2): ReLU()
      (3): Dropout(p=0.5, inplace=False)
      (4): Linear(in_features=64, out_features=64, bias=True)
      (5): BatchNorm1d(64, eps=1e-05, momentum=0.1, affine=True, track_running_stats=True)
      (6): ReLU()
      (7): Dropout(p=0.5, inplace=False)
    )
  )
  (fs_module): FeatureSelection(
    (fs1_ctx_emb): ModuleList(
      (0): Embedding(24, 64)
      (1): Embedding(7, 64)
      (2): Embedding(9, 64)
      (3): Linear(in_features=1, out_features=64, bias=True)
    )
    (fs2_ctx_emb): ModuleList(
      (0): Embedding(298, 64)
      (1): Embedding(3126, 64)
    )
    (fs1_gate): MLP_Block(
      (mlp): Sequential(
        (0): Linear(in_features=256, out_features=256, bias=True)
        (1): ReLU()
        (2): Linear(in_features=256, out_features=64, bias=True)
        (3): ReLU()
        (4): Linear(in_features=64, out_features=512, bias=True)
        (5): Sigmoid()
      )
    )
    (fs2_gate): MLP_Block(
      (mlp): Sequential(
        (0): Linear(in_features=128, out_features=256, bias=True)
        (1): ReLU()
        (2): Linear(in_features=256, out_features=64, bias=True)
        (3): ReLU()
        (4): Linear(in_features=64, out_features=512, bias=True)
        (5): Sigmoid()
      )
    )
  )
  (fusion_module): InteractionAggregation(
    (w_x): Linear(in_features=64, out_features=1, bias=True)
    (w_y): Linear(in_features=64, out_features=1, bias=True)
  )
)
INFO:root:Test Before Training: (AUC@All:0.4936,LOG_LOSS@All:0.6931)
INFO:root:Optimizer: Adam
INFO:root:Epoch 1     loss=0.5757 [22.5 s]	dev=(AUC@All:0.7799,LOG_LOSS@All:0.5620) [0.8 s] *
INFO:root:Epoch 2     loss=0.5333 [14.8 s]	dev=(AUC@All:0.7824,LOG_LOSS@All:0.5620) [0.8 s] *
INFO:root:Epoch 3     loss=0.5235 [14.7 s]	dev=(AUC@All:0.7820,LOG_LOSS@All:0.5653) [0.8 s]
…
