…
INFO:root:"# user": 269311, "# item": 9372, "# entry": 45612425
INFO:root:"# positive interaction": 1915965 (4.2%)
INFO:root:Collect context features...
INFO:root:Loading context for train set...
INFO:root:#Situation Feautures: 4
INFO:root:Loading context for dev set...
INFO:root:#Situation Feautures: 4
INFO:root:Loading context for test set...
INFO:root:#Situation Feautures: 4
INFO:root:# Item Features: 3
INFO:root:Save corpus to ../data/MINDCTR/ContextReader_context101.pkl
INFO:root:#params: 18140546
INFO:root:FinalMLPCTR(
  (loss_fn): BCELoss()
  (embedding_dict): ModuleDict(
    (i_category_c): Embedding(17, 64)
    (i_subcategory_c): Embedding(196, 64)
    (c_day_f): Linear(in_features=1, out_features=64, bias=False)
    (c_hour_c): Embedding(24, 64)
    (c_period_c): Embedding(9, 64)
    (c_weekday_c): Embedding(7, 64)
    (user_id): Embedding(269312, 64)
    (item_id): Embedding(9373, 64)
  )
  (mlp1): MLP_Block(
    (mlp): Sequential(
      (0): Linear(in_features=512, out_features=64, bias=True)
      (1): ReLU()
    )
  )
  (mlp2): MLP_Block(
    (mlp): Sequential(
      (0): Linear(in_features=512, out_features=256, bias=True)
      (1): ReLU()
    )
  )
  (fs_module): FeatureSelection(
    (fs1_ctx_emb): ModuleList(
      (0): Embedding(24, 64)
      (1): Embedding(7, 64)
      (2): Embedding(9, 64)
      (3): Linear(in_features=1, out_features=64, bias=True)
    )
    (fs2_ctx_emb): ModuleList(
      (0): Embedding(17, 64)
      (1): Embedding(196, 64)
    )
    (fs1_gate): MLP_Block(
      (mlp): Sequential(
        (0): Linear(in_features=256, out_features=64, bias=True)
        (1): ReLU()
        (2): Linear(in_features=64, out_features=512, bias=True)
        (3): Sigmoid()
      )
    )
    (fs2_gate): MLP_Block(
      (mlp): Sequential(
        (0): Linear(in_features=128, out_features=64, bias=True)
        (1): ReLU()
        (2): Linear(in_features=64, out_features=512, bias=True)
        (3): Sigmoid()
      )
    )
  )
  (fusion_module): InteractionAggregation(
    (w_x): Linear(in_features=64, out_features=1, bias=True)
    (w_y): Linear(in_features=256, out_features=1, bias=True)
  )
)
INFO:root:Test Before Training: (AUC@All:0.4456,LOG_LOSS@All:0.6918)
INFO:root:Optimizer: Adam
INFO:root:Namespace(model_name='FinalMLP', model_mode='CTR')
INFO:root:--------------------------------------------- BEGIN: 2024-12-19 10:55:22 ---------------------------------------------
INFO:root:
===================================================
 Arguments                  | Values               
…
INFO:root:Counting dataset statistics...
INFO:root:"# user": 20596, "# item": 3177, "# entry": 3793769
INFO:root:"# positive interaction": 165925 (4.4%)
INFO:root:Collect context features...
INFO:root:Loading context for train set...
INFO:root:#Situation Feautures: 4
INFO:root:Loading context for dev set...
INFO:root:#Situation Feautures: 4
INFO:root:Loading context for test set...
INFO:root:#Situation Feautures: 4
INFO:root:# Item Features: 3
INFO:root:Save corpus to ../data/MINDCTR/ContextReader_context101.pkl
INFO:root:#params: 1821570
INFO:root:FinalMLPCTR(
  (loss_fn): BCELoss()
  (embedding_dict): ModuleDict(
    (i_category_c): Embedding(15, 64)
    (i_subcategory_c): Embedding(161, 64)
    (c_day_f): Linear(in_features=1, out_features=64, bias=False)
    (c_hour_c): Embedding(24, 64)
    (c_period_c): Embedding(9, 64)
    (c_weekday_c): Embedding(7, 64)
    (user_id): Embedding(20597, 64)
    (item_id): Embedding(3178, 64)
  )
  (mlp1): MLP_Block(
    (mlp): Sequential(
      (0): Linear(in_features=512, out_features=64, bias=True)
      (1): ReLU()
    )
  )
  (mlp2): MLP_Block(
    (mlp): Sequential(
      (0): Linear(in_features=512, out_features=256, bias=True)
      (1): ReLU()
    )
  )
  (fs_module): FeatureSelection(
    (fs1_ctx_emb): ModuleList(
      (0): Embedding(24, 64)
      (1): Embedding(7, 64)
      (2): Embedding(9, 64)
      (3): Linear(in_features=1, out_features=64, bias=True)
    )
    (fs2_ctx_emb): ModuleList(
      (0): Embedding(15, 64)
      (1): Embedding(161, 64)
    )
    (fs1_gate): MLP_Block(
      (mlp): Sequential(
        (0): Linear(in_features=256, out_features=64, bias=True)
        (1): ReLU()
        (2): Linear(in_features=64, out_features=512, bias=True)
        (3): Sigmoid()
      )
    )
    (fs2_gate): MLP_Block(
      (mlp): Sequential(
        (0): Linear(in_features=128, out_features=64, bias=True)
        (1): ReLU()
        (2): Linear(in_features=64, out_features=512, bias=True)
        (3): Sigmoid()
      )
    )
  )
  (fusion_module): InteractionAggregation(
    (w_x): Linear(in_features=64, out_features=1, bias=True)
    (w_y): Linear(in_features=256, out_features=1, bias=True)
  )
)
INFO:root:Test Before Training: (AUC@All:0.4943,LOG_LOSS@All:0.6884)
INFO:root:Optimizer: Adam
INFO:root:Epoch 1     loss=0.1695 [75.7 s]	dev=(AUC@All:0.6851,LOG_LOSS@All:0.1618) [2.6 s] *
INFO:root:Epoch 2     loss=0.1635 [50.9 s]	dev=(AUC@All:0.6868,LOG_LOSS@All:0.1631) [2.8 s] *
INFO:root:Epoch 3     loss=0.1582 [49.9 s]	dev=(AUC@All:0.6893,LOG_LOSS@All:0.1652) [2.4 s] *
…
